Model: "tempnet_q8"
__________________________________________________________________________________________________
 Layer (type)                Output Shape                 Param #   Connected to
==================================================================================================
 input (InputLayer)          [(None, 24)]                 0         []

 tf.linalg.matmul (TFOpLamb  (None, 64)                   0         ['input[0][0]']
 da)

 tf.nn.bias_add (TFOpLambda  (None, 64)                   0         ['tf.linalg.matmul[0][0]']
 )

 tf.cast (TFOpLambda)        (None, 64)                   0         ['tf.nn.bias_add[0][0]']

 tf.math.multiply_1 (TFOpLa  (None, 64)                   0         ['tf.cast[0][0]']
 mbda)

 tf.math.truediv (TFOpLambd  (None, 64)                   0         ['tf.math.multiply_1[0][0]']
 a)

 tf.math.negative (TFOpLamb  (None, 64)                   0         ['tf.math.truediv[0][0]']
 da)

 tf.math.round (TFOpLambda)  (None, 64)                   0         ['tf.math.truediv[0][0]']

 tf.__operators__.add (TFOp  (None, 64)                   0         ['tf.math.negative[0][0]',
 Lambda)                                                             'tf.math.round[0][0]']

 tf.stop_gradient (TFOpLamb  (None, 64)                   0         ['tf.__operators__.add[0][0]']
 da)

 tf.ones_like (TFOpLambda)   (None, 64)                   0         ['tf.cast[0][0]']

 tf.__operators__.add_1 (TF  (None, 64)                   0         ['tf.math.truediv[0][0]',
 OpLambda)                                                           'tf.stop_gradient[0][0]']

 tf.math.less_equal (TFOpLa  (None, 64)                   0         ['tf.cast[0][0]']
 mbda)

 tf.nn.relu (TFOpLambda)     (None, 64)                   0         ['tf.cast[0][0]']

 tf.math.multiply (TFOpLamb  (None, 64)                   0         ['tf.ones_like[0][0]']
 da)

 tf.math.truediv_1 (TFOpLam  (None, 64)                   0         ['tf.__operators__.add_1[0][0]
 bda)                                                               ']

 tf.where (TFOpLambda)       (None, 64)                   0         ['tf.math.less_equal[0][0]',
                                                                     'tf.nn.relu[0][0]',
                                                                     'tf.math.multiply[0][0]']

 tf.clip_by_value (TFOpLamb  (None, 64)                   0         ['tf.math.truediv_1[0][0]']
 da)

 tf.math.negative_1 (TFOpLa  (None, 64)                   0         ['tf.where[0][0]']
 mbda)

 tf.math.multiply_2 (TFOpLa  (None, 64)                   0         ['tf.clip_by_value[0][0]']
 mbda)

 tf.__operators__.add_2 (TF  (None, 64)                   0         ['tf.math.negative_1[0][0]',
 OpLambda)                                                           'tf.math.multiply_2[0][0]']

 tf.math.multiply_3 (TFOpLa  (None, 64)                   0         ['tf.__operators__.add_2[0][0]
 mbda)                                                              ']

 tf.stop_gradient_1 (TFOpLa  (None, 64)                   0         ['tf.math.multiply_3[0][0]']
 mbda)

 tf.__operators__.add_3 (TF  (None, 64)                   0         ['tf.where[0][0]',
 OpLambda)                                                           'tf.stop_gradient_1[0][0]']

 tf.linalg.matmul_1 (TFOpLa  (None, 32)                   0         ['tf.__operators__.add_3[0][0]
 mbda)                                                              ']

 tf.nn.bias_add_1 (TFOpLamb  (None, 32)                   0         ['tf.linalg.matmul_1[0][0]']
 da)

 tf.cast_1 (TFOpLambda)      (None, 32)                   0         ['tf.nn.bias_add_1[0][0]']

 tf.math.multiply_5 (TFOpLa  (None, 32)                   0         ['tf.cast_1[0][0]']
 mbda)

 tf.math.truediv_2 (TFOpLam  (None, 32)                   0         ['tf.math.multiply_5[0][0]']
 bda)

 tf.math.negative_2 (TFOpLa  (None, 32)                   0         ['tf.math.truediv_2[0][0]']
 mbda)

 tf.math.round_1 (TFOpLambd  (None, 32)                   0         ['tf.math.truediv_2[0][0]']
 a)

 tf.__operators__.add_4 (TF  (None, 32)                   0         ['tf.math.negative_2[0][0]',
 OpLambda)                                                           'tf.math.round_1[0][0]']

 tf.stop_gradient_2 (TFOpLa  (None, 32)                   0         ['tf.__operators__.add_4[0][0]
 mbda)                                                              ']

 tf.ones_like_1 (TFOpLambda  (None, 32)                   0         ['tf.cast_1[0][0]']
 )

 tf.__operators__.add_5 (TF  (None, 32)                   0         ['tf.math.truediv_2[0][0]',
 OpLambda)                                                           'tf.stop_gradient_2[0][0]']

 tf.math.less_equal_1 (TFOp  (None, 32)                   0         ['tf.cast_1[0][0]']
 Lambda)

 tf.nn.relu_1 (TFOpLambda)   (None, 32)                   0         ['tf.cast_1[0][0]']

 tf.math.multiply_4 (TFOpLa  (None, 32)                   0         ['tf.ones_like_1[0][0]']
 mbda)

 tf.math.truediv_3 (TFOpLam  (None, 32)                   0         ['tf.__operators__.add_5[0][0]
 bda)                                                               ']

 tf.where_1 (TFOpLambda)     (None, 32)                   0         ['tf.math.less_equal_1[0][0]',
                                                                     'tf.nn.relu_1[0][0]',
                                                                     'tf.math.multiply_4[0][0]']

 tf.clip_by_value_1 (TFOpLa  (None, 32)                   0         ['tf.math.truediv_3[0][0]']
 mbda)

 tf.math.negative_3 (TFOpLa  (None, 32)                   0         ['tf.where_1[0][0]']
 mbda)

 tf.math.multiply_6 (TFOpLa  (None, 32)                   0         ['tf.clip_by_value_1[0][0]']
 mbda)

 tf.__operators__.add_6 (TF  (None, 32)                   0         ['tf.math.negative_3[0][0]',
 OpLambda)                                                           'tf.math.multiply_6[0][0]']

 tf.math.multiply_7 (TFOpLa  (None, 32)                   0         ['tf.__operators__.add_6[0][0]
 mbda)                                                              ']

 tf.stop_gradient_3 (TFOpLa  (None, 32)                   0         ['tf.math.multiply_7[0][0]']
 mbda)

 tf.__operators__.add_7 (TF  (None, 32)                   0         ['tf.where_1[0][0]',
 OpLambda)                                                           'tf.stop_gradient_3[0][0]']

 qout (Dense)                (None, 1)                    33        ['tf.__operators__.add_7[0][0]
                                                                    ']

==================================================================================================
Total params: 33 (132.00 Byte)
Trainable params: 33 (132.00 Byte)
Non-trainable params: 0 (0.00 Byte)
__________________________________________________________________________________________________
…
